backend/models/gesture_clf_pt.onnx (onnx, 67936 bytes, 6 tensors)

net.0.weight f4 [128, 63]
00000000: b9de 763c 389b 87bd 7788 aa3b bbff 5a3c
00000010: 16b2 03be 629f 18bd 9aa0 b83d 77df 36be
00000020: 82d2 793b cbeb 68bd 4ae0 1fbe 7e0c eb3c
00000030: 2874 503d ee26 c1bd a930 343e 79a2 e33d
00000040: 9e5d 5e3d 4812 003d 1830 d03d 979f f0bc
00000050: 3284 5c3c 9547 133e 4f55 ae3b 6af8 2bbc
00000060: b52e 633c d6f1 0f3a fc84 b53d 9cdb 04bd
00000070: 514a 20bd 4517 763d 26a1 0a3e 28d8 c3bd
00000080: 68f0 303e ef52 d63d 0edc 9b3d bbcc a73d
00000090: aae0 f5bd d60d 573e 0051 733e eb94 9f3d
000000a0: 1188 d03d fe14 da3d 2b2f 873d 6007 633d
000000b0: c164 ac3b 2222 1b3d 5a5c b9bd ae1a 1d3e
000000c0: a886 753c eeb8 bd3d d996 353e 52fd 3ebd
000000d0: 44ee 453e b47d 6fbc 71e0 b23d 6d39 c43d
000000e0: a170 abbd a09a a3bd ffd7 143d a47a 923d
000000f0: 4218 293d 2258 c33d c9d2 d03c c8cc d4bd
00000100: 0576 c63c f4c6 dcbd 45ae afbd c142 483d
00000110: 246e 13be ea4e e93d d35b 18bd 299e 87bd
00000120: e30d 643d 2b2f 9f3d 0ec8 823b e976 093e
00000130: 1d7f abbd 4a92 18be c421 d03d bc45 e9bd
00000140: 0923 173d a7ea 043e e829 a2bc d0b0 a1bd
00000150: 47d8 ab3d 2107 a63d 6b1e 47bd 549c c4bd
00000160: f7a4 e8bc 47f2 e93d a8eb 443c 93d8 febc
00000170: efa1 8f3d c867 e2bd 939a 09be 9e00 9f3d
00000180: 209f d53c ba41 413b 9bfe 75bd f0bb 0b3e
00000190: 2423 10be 8bba 00bd 8cb3 be3d 4ca2 b43d
000001a0: a8d2 2ebd 91f0 59bc cf06 f3bd bb73 343d
000001b0: 0ea8 dd3d 9ff8 38be 8ff0 e1bd f754 0b3e
000001c0: 0acd 513c bdff cabd 156a f53d fb9b d3bd
000001d0: 6803 053e 6aa1 7d3c 424d c43c 11f1 3dbd
000001e0: 2f5b 15be fa63 45bd 42aa 09be ceda 903d
000001f0: 6dda b93c fbe9 12be 69dd 8ebd 0b48 84be
00000200: 8fc9 dfbc 699d 133c 6bc3 763d 1a2b b9bc
00000210: 1271 bbbd 5de0 583c ed9a 91bd 10cd 173c
00000220: ad37 7dbd b023 983d 84a3 c23d 1294 ee3d
00000230: 7986 6a3d e157 96bd 1bd3 1bbe 9932 963b
00000240: ad63 d23d ee1e 783c a3f2 9bbc ad83 a4bd
00000250: 172e 173e 6ce7 ec3d 3ec7 2ebd 3a43 633d
00000260: 8faf 0b3e e652 d4bd 60ba 36bd 1f29 64bd
00000270: efb8 043e 67e6 abbc fa93 7ebd fea8 0d3c
00000280: 8980 33be 10b1 873d eff5 84bd c3d0 3abe
00000290: cf7d 6bbe 6aeb eabc 663a 30be a97d 913d
000002a0: d5e6 84bd 2d9e 12be 9d57 a3bd 86ea 8f3c
000002b0: 23ea 1abe 7719 ef3c 11ed 263d 964f 09be
000002c0: b9b0 5bbe 4f26 983d 8f09 61be 84c7 803c
000002d0: 1dc5 443d e616 60bd 084e 30bd b1c4 263d
000002e0: 9957 74be e48c 423d fd1a 9f3d 6dab 60be
000002f0: a25f b9bd 24b6 be3d f93d c53d 3369 453d
00000300: 82f5 c8ba e562 f43c 3ea6 0dbb 4af4 0abe
00000310: 0a90 7bbe 19bf 3abd 11f9 42be 368a 88be
00000320: 4869 6bbd 5ec8 87bd 89a6 4dbe e14b d03d
00000330: 3f44 f63c cb68 583d 2ab7 a73b 6901 d2bc
00000340: 781e 5dbd 8acb a43d 7db1 14be 2496 f6ba
00000350: fd60 123e 8be9 b4bd a5b3 5c3e 7ca4 033e
00000360: cd1e 5a3c 7bf6 e73d 1f8e b23d 83d5 c8bd
00000370: 68af 073d c4d3 533e 86fa 88bd 0457 ba3d
00000380: c2c0 cc3d 4517 c83d ede3 1c3e 19d9 de3a
00000390: 9ca7 e73d f099 843d 4241 3dbe a995 2b3c
000003a0: 1f52 9c3d 771f 823c e36b 0cbe f4e9 a33d
000003b0: faec 6ebd 171c 34bd 9ad0 703d 2d64 8fbd
000003c0: 9864 003e 2bd7 483e aa16 7b3d 25d9 8cbd
000003d0: f132 353e a75c c8bd a788 22be 8f17 333e
000003e0: c829 14be 8472 7cbd 2147 6ebb 0a0a 7fbd
000003f0: 142f 3fbd 970f bb3d 97dd f6bd 4ccd 3cbb
0.01506775 -0.066214025 0.005204256 0.013366635 -0.12860903 -0.037261374 0.09015007 -0.17858683
0.0038119857 -0.056865495 -0.15612903 0.02869248 0.050892025 -0.094312534 0.17596687 0.111149736
0.0542885 0.031267434 0.10165423 -0.029372973 0.013459252 0.14382775 0.005320228 -0.010496238
0.013866116 0.00054910535 0.088632554 -0.032436 -0.039133374 0.060080785 0.13538036 -0.09562713
0.17279208 0.10465037 0.076103315 0.08193346 -0.12005742 0.21001372 0.23761368 0.07792076
0.101822026 0.10648535 0.066007935 0.055426955 0.0052610342 0.03787435 -0.09050818 0.15342209
0.014985718 0.09263788 0.17733325 -0.046628304 0.19329172 -0.014617372 0.08734215 0.095812656
-0.08371092 -0.07988477 0.036338802 0.07152298 0.0412829 0.095382944 0.025491135 -0.103906214
0.024226198 -0.10780135 -0.08578161 0.048891786 -0.14397484 0.11392005 -0.037196945 -0.066219635
0.055677306 0.077726685 0.0039911335 0.13424267 -0.08373854 -0.14899555 0.1016269 -0.11390254
0.036898647 0.12980138 -0.019795373 -0.078950524 0.08390861 0.081068285 -0.048612993 -0.0960013
-0.028398974 0.11423164 0.012019075 -0.03110913 0.07013308 -0.11054951 -0.13437872 0.077637896
0.026076853 0.002948864 -0.060057264 0.13645911 -0.14075905 -0.0314279 0.093115896 0.08820018
-0.042681366 -0.013301984 -0.11866533 0.04405568 0.108230695 -0.18063591 -0.11032211 0.1360663
0.012805233 -0.099120595 0.11983124 -0.10332485 0.1298958 0.015480379 0.02396262 -0.046372477
-0.14585565 -0.04819105 -0.13443854 0.07072984 0.022687161 -0.14347069 -0.069758244 -0.25836214
-0.02731779 0.0090096975 0.06024496 -0.02260356 -0.09152426 0.013237086 -0.07109628 0.009265199
-0.061820675 0.07428682 0.095038444 0.11649336 0.05725715 -0.0734098 -0.15217249 0.0045836684
0.10272918 0.015144093 -0.019036597 -0.08032928 0.14763676 0.11567578 -0.04267048 0.055484034
0.13641189 -0.10367374 -0.044611335 -0.05570328 0.12961172 -0.020983888 -0.06215284 0.008646248
-0.17529501 0.06625569 -0.064922206 -0.18243699 -0.22997211 -0.028676707 -0.17209777 0.07104046
-0.0648934 -0.14318152 -0.07975695 0.017567884 -0.15128379 0.029186947 0.040753428 -0.13409266
-0.21454133 0.07429182 -0.21976303 0.015720136 0.048039544 -0.054709338 -0.043043166 0.040714923
-0.23861541 0.047497645 0.077688195 -0.21940394 -0.09051444 0.09312084 0.09630961 0.04819603
-0.0015331956 0.029832313 -0.002161398 -0.13569751 -0.24566665 -0.0455924 -0.19040324 -0.26667947
-0.05747345 -0.06630014 -0.2008306 0.10170723 0.03006184 0.052834313 0.0051182704 -0.025635438
-0.053984135 0.080466345 -0.14520831 -0.0018813056 0.1429481 -0.08833607 0.21552904 0.12855715
0.013313008 0.11326309 0.08718514 -0.09806349 0.033126265 0.20686251 -0.066884086 0.09098628
0.09997703 0.09770063 0.15321322 0.0017001956 0.11311266 0.06474674 -0.18481925 0.0104726935
0.07632851 0.015884144 -0.1371303 0.080036074 -0.058331467 -0.0439721 0.058792688 -0.07001529
0.12538373 0.1961333 0.06130091 -0.068773545 0.17695214 -0.09783297 -0.15872441 0.17489456
-0.14469063 -0.061632648 -0.0036358314 -0.062265433 -0.046675757 0.09133833 -0.12053984 -0.002880889

net.0.bias f4 [128]
00000000: 54fe 363d 88f7 f43c 3807 993d 01a9 2fbb
00000010: f9e6 673e 47e7 f23d 7be9 943d 8773 5a3d
00000020: cee5 d03c 04b2 b43d e39b 44bd 3766 1b3d
00000030: e56b 383d a8df 743e 24d0 2c3d d640 4a3d
00000040: e493 103e 743f cf3d ac27 38bb 1731 153e
00000050: e1d4 ca3c 2a65 ebbc b7e7 623e 0053 753e
00000060: 1d88 823e 7303 f43d c6dd 5a3e ce39 4a3e
00000070: 6532 4f3e 2065 063e 5ee5 db3c 150e 863d
00000080: 6652 bf3d 0124 85bd ded6 0d3e da38 87bc
00000090: f277 cc3c 4085 883e 22b3 753e 86c1 b83c
000000a0: 3bbe 893e f737 dfbd 8aba 293e 919d 303e
000000b0: c806 3d3d a1a7 69bd 8642 8fbd fbce 133e
000000c0: b33a 2f3e 5dc7 35bd 9425 bc3d 3eff e73d
000000d0: 9a79 3e3e 7406 4b3e cfdc e03d 8f69 24bd
000000e0: 0df0 743d daa5 4bbd bc31 0b3e cd78 103c
000000f0: 7d8e e23c 50de 733e 4047 eb3d 77fb 753d
00000100: 88d6 a1bc 67a2 263e e824 293e 6139 553a
00000110: 5121 3c3d c40a 0d3e 6d02 e1bc f3bb 5c3e
00000120: 664f 623e e764 343d 8351 813d 3012 433d
00000130: 84ab 63bd 281a 483e 3b2f a0bd 7444 3b3e
00000140: f65e 253e d3fd 463e d690 3dbc 6a12 0a3e
00000150: 43a9 54bd 0b56 f2bc ac68 df3c 4430 ae3d
00000160: 50d7 663d 3ad9 1e3e ee4c 3d3e e119 403d
00000170: eb54 463e 8be5 f6bb 0dfd 69bc aae6 d43d
00000180: f5c2 5abd b978 993d 64d2 063e 7dc0 6d3d
00000190: 6838 17bc 0e5d 423d ff0d b1bd bb17 45bd
000001a0: 0113 f13d eefd c03d 2cd5 893d 40ea 273e
000001b0: f26a 4c3e f966 303e 487f 103e 5be6 bc3d
000001c0: 3039 a53d d111 203e bddd 3bbd 0f1e 413d
000001d0: 812b 9e3c b6b8 b93d 525b 2abc c220 903e
000001e0: 1c26 9cbc 37d9 323e b383 6a3e d0e9 043e
000001f0: f1a2 783e 8f7b 7abd 2420 283e 817a 7fbc
0.04467614 0.029903188 0.0747208 -0.0026803615 0.22646703 0.11860519 0.07271095 0.05333283
0.025500204 0.08823016 -0.048000228 0.037939277 0.04502477 0.23913443 0.042190686 0.04937824
0.14118916 0.101195246 -0.0028099818 0.14569508 0.024759712 -0.028734762 0.22158705 0.23957443
0.2549447 0.119147204 0.21373662 0.19748613 0.20234068 0.13124514 0.02684277 0.06545655
0.09341888 -0.06501008 0.13851497 -0.016506601 0.024959538 0.26664162 0.23994115 0.022553217
0.26902947 -0.10899346 0.16575065 0.17247607 0.046149045 -0.05704463 -0.0699511 0.14434426
0.17112236 -0.04437958 0.09186855 0.113279805 0.18601075 0.1982668 0.10979616 -0.04013973
0.059799243 -0.049718715 0.13593191 0.008817864 0.027655834 0.23815274 0.11488199 0.06005427
-0.019755617 0.16272889 0.16517985 0.00081338553 0.04593021 0.13773638 -0.027466977 0.21556072
0.221006 0.04404154 0.06314375 0.047624767 -0.055583492 0.19541228 -0.078215085 0.18287832
0.16149506 0.19432764 -0.011570176 0.13483587 -0.051919233 -0.029582044 0.027271591 0.085053
0.05635768 0.15512553 0.18486378 0.04689968 0.19368331 -0.007534688 -0.014281523 0.10395558
-0.05340858 0.07493729 0.13166195 0.0580449 -0.009229757 0.047452025 -0.08645248 -0.048118334
0.11771203 0.09423433 0.067301124 0.16397953 0.19962671 0.17226781 0.14111054 0.09223624
0.08067548 0.15631796 -0.045865763 0.047147807 0.019307854 0.09068434 -0.010397749 0.28149992
-0.01906114 0.17465673 0.22901802 0.12979817 0.24280907 -0.06115299 0.1641851 -0.015593172

net.2.weight f4 [64, 128]
00000000: e570 da3c dbca 853d 30fc ef3d 9faf aabd
00000010: 8826 123e 2dd6 113e 0730 b2bd 7b2f 9f3c
00000020: 8822 41bd 4346 103e 4489 543c 89a6 293e
00000030: c778 4fbe 261f 0a3e 82ef 53bd 5833 b2bd
00000040: 523b 733d bc6c 583d 38d4 3b3d 989d 673b
00000050: e213 92bd 4ff8 4abe e7eb 4d3e 27c3 ce3d
00000060: f5f5 053e e406 c73d 63f1 193e f823 07bd
00000070: cb0e 67bc a0d4 7a3d 128a 0a3e cf84 c9ba
00000080: 7f19 b6bd 105c 73be e2be e53c d7e9 acbd
00000090: 4961 a63d c110 fa3d 90ad bf3d 474a 183c
000000a0: ec90 0b3d 42b1 85bc 6c9d 98bd 2d37 193e
000000b0: 2177 2fbc a9be c5bd ab30 703d 70ba e73d
000000c0: df53 72bd c177 05be 26a6 14be 3196 5f3d
000000d0: 05c8 de3d d223 eabd 49b2 fd3d f6b5 67bd
000000e0: ccb6 153b 7528 a13d 356b 063e 440f 0d3e
000000f0: 7b5f 0d3e fde9 473e 8678 2a3d 2283 393c
00000100: 1067 173e b2a9 8ebd c052 47bd df1b 243e
00000110: fe51 de3d b05e a5bd d489 8c3d 51c4 263e
00000120: 7fff 133b 4ade ae3d bd2f 99bc 7e6a 433d
00000130: 0b29 07be 153a 353e 32cc 91bd 51b6 b5bd
00000140: 3d1d a2bd 3327 b63c c71f 0e3e 24c4 8e3d
00000150: bac4 443d 3317 51bd 8adb 913d 1473 003e
00000160: 3285 683c 16c7 63bd 0a48 0abd 17d6 bbbc
00000170: 11f2 343e d70c d83d 0c6c b8bd e97c dc3d
00000180: 44a5 2abe d9ab f4bd 89d4 adbd 0ba0 e83d
00000190: 02bb f4bc 2f57 603d b067 24be cec4 4ebc
000001a0: e4aa a03d 129d b43d 5c45 b03d 2589 533e
000001b0: 8d65 9e3d 5ca4 c139 7473 b03c edbf 98bd
000001c0: 5930 f93d 6f36 f93d d76f 693d 75bd e1bc
000001d0: f7d9 57bd 71e2 bdbc 766e 193d 80c8 1d3e
000001e0: bed6 733d b26b 693d 1cbf 2b3d 39c7 4fbd
000001f0: 43d2 f23d 41fc d43d 916b 8cbd 0308 10be
00000200: 1779 103e 121a 20bd 1ed5 e7bd d1cd 1e3e
00000210: d50c 50bd aeba 1a3c 0a60 9bbd d241 df3d
00000220: 8e15 093c 362c c03c 060b fd3d c61d dfbd
00000230: 3bab 19bd 0b33 c0bb 7a60 b4bd ddd9 0abe
00000240: 3375 29bc 470b 9a3d cffc c83d 626d 023d
00000250: 2ff5 bbbd de9d b73d c068 07bc 6011 773b
00000260: 34e6 43bc 8b2c b33d 7739 283d 30fb ff3d
00000270: 4697 4abd 8e1e 80bd ac4a 0c3e 2a29 f33b
00000280: 63a5 ab3d 11b9 0d3e 3f53 3fbc dd85 dbbc
00000290: 3f58 95bd 99a5 3ebd 3411 94bd 5158 123e
000002a0: 7515 5ebd 86b5 373d 247d d9bc de60 af3d
000002b0: 972c 71bd f112 9d3d eb6a 8d3d 6840 3cbd
000002c0: b4ae f5bd d9e2 a53a ce95 b0bd 7f9a bcbd
000002d0: a2c5 e53c 964f dcbd 635b 333d 1493 e5bd
000002e0: 701f de3d 31d4 92bb 539c 1d3d a2c9 8cbd
000002f0: 2d64 c4bd afe3 5c3d 05ae f93d f531 b8bd
00000300: ef52 473d e1ca 06be 5a29 9a3d b28c e83d
00000310: f781 b13b b662 18bd 9963 e3bd 2f25 e33d
00000320: b52f 32bc 4e66 2dbd 8022 90bc 0a78 be3d
00000330: ecc2 1bbe d3f4 2cbd 9f9f c23c 8936 993c
00000340: 420f 023e b448 10bd 426d 823d ed92 c3bc
00000350: 1eee 083d 3b41 a1bd 1fcb ee3d 82a1 7f3d
00000360: b265 af3b 1336 97bd e7a1 b63d c63c d0bd
00000370: 3936 123d 7823 b03d bd6f 1f3c 2320 c1bb
00000380: b018 2ebd a8e5 babd d34c b63d cb64 1abc
00000390: 39de 4cbd ab6e a53c d95d 2bbd 4f5e 823d
000003a0: c294 0cbe b5dc 073e d3ba d83d e6d6 dabb
000003b0: f7ce e4bd aa98 673d a9a7 04be 431d 043e
000003c0: 3e89 63bd a7e0 bebd 91a4 e03d e235 08bd
000003d0: d0a6 0ebd 4bda c6bb efce 3e3d 6605 eb3d
000003e0: 1720 82bb 3d3d d1bd 1a43 c7bc ee29 11be
000003f0: 715b d43c 966c a8bc 494a 063c e4fb 00bd
0.02666516 0.06532832 0.11718023 -0.08334278 0.14272511 0.14241858 -0.08700567 0.01943182
-0.047152072 0.14089303 0.01297218 0.16567434 -0.20260917 0.13488445 -0.051742084 -0.08701199
0.059382744 0.052838072 0.045856684 0.0035341736 -0.071326986 -0.19821285 0.20109521 0.10095816
0.13082106 0.09718111 0.15033488 -0.032993287 -0.014102648 0.06123793 0.13529232 -0.0015374663
-0.08891582 -0.23765588 0.028045122 -0.08443039 0.081240244 0.12210227 0.09359276 0.009295053
0.034073755 -0.016319875 -0.07451901 0.14962454 -0.010709555 -0.09655506 0.058640163 0.11314857
-0.059162017 -0.13033964 -0.14516506 0.054586593 0.108779944 -0.114326134 0.12387521 -0.056570016
0.002284455 0.07869045 0.13126834 0.13775355 0.13805954 0.19522853 0.041618846 0.011322768
0.14785409 -0.069659606 -0.0486629 0.16026257 0.108554825 -0.08074701 0.06862226 0.16285826
0.0022582707 0.08538492 -0.018699521 0.04770898 -0.1319925 0.17697938 -0.07119025 -0.08872665
-0.07915733 0.022235489 0.1387931 0.069710046 0.048039176 -0.051047515 0.07121952 0.12543899
0.0141919125 -0.055609785 -0.033760108 -0.022929234 0.17670466 0.10549324 -0.09004983 0.10766012
-0.16664606 -0.1194684 -0.084878035 0.11358651 -0.029874329 0.054770645 -0.16055179 -0.012620164
0.07845095 0.08819021 0.08606979 0.20657785 0.07734213 0.00036934286 0.021539427 -0.07458482
0.12167425 0.121685855 0.056991424 -0.02755616 -0.0526981 -0.023179265 0.03745886 0.15408516
0.059530966 0.056987472 0.041930303 -0.050727103 0.118565105 0.10399676 -0.06856454 -0.14065556
0.14108692 -0.039087363 -0.11319946 0.155082 -0.050793488 0.009443922 -0.07586677 0.10901226
0.008366955 0.023458581 0.12355618 -0.10894351 -0.037516814 -0.00586546 -0.08807464 -0.13559671
-0.010342884 0.07521682 0.098138444 0.031842597 -0.091776244 0.08965658 -0.00826472 0.0037699565
-0.01195674 0.0874873 0.041070428 0.12499082 -0.04946067 -0.06255828 0.1370036 0.0074206786
0.083811544 0.13840128 -0.011677562 -0.02679723 -0.07292222 -0.046544645 -0.07229844 0.14291503
-0.05421968 0.04485085 -0.02654893 0.08563398 -0.058880415 0.076696284 0.069051586 -0.04595986
-0.119962126 0.0012656107 -0.08622323 -0.09209155 0.02804834 -0.10757367 0.043788325 -0.112096936
0.1084584 -0.0044808616 0.03847916 -0.06874396 -0.095894195 0.053928073 0.12191395 -0.089939035
0.048663076 -0.1316333 0.075274184 0.113549605 0.0054171043 -0.037203513 -0.11102981 0.110910766
-0.010875632 -0.042333893 -0.017594576 0.093002394 -0.15211076 -0.04222567 0.023757754 0.018702762
0.12701133 -0.035225585 0.063684955 -0.02387377 0.03343021 -0.0787377 0.11659836 0.062409885
0.005352699 -0.07383361 0.08917599 -0.101678416 0.035696242 0.08600515 0.00973123 -0.0058937236
-0.042504013 -0.09125835 0.08901372 -0.009423445 -0.050016616 0.020194372 -0.041837547 0.06365644
-0.13728622 0.13267787 0.10582509 -0.00667845 -0.11172288 0.056542076 -0.12954582 0.12901787
-0.055550806 -0.09320193 0.109688886 -0.03325451 -0.034827054 -0.006068503 0.046584066 0.11475639
-0.0039711106 -0.102167584 -0.024323989 -0.14176151 0.025922509 -0.02055959 0.008196422 -0.03149022

net.2.bias f4 [64]
00000000: f758 983d 7a6e 903c e04a 653c 18fa e03b
00000010: 9900 4a3c d277 07bc 6ad3 623b 6e57 4ebd
00000020: 6dad 4c3e 034f fb3d 6ea3 5bbc b041 adbd
00000030: dda9 413e 1cc9 683d ce6e 7fbd c1e8 a6bd
00000040: 6d7e 0f3e 6e3a ffbd 3dd8 c7bb cd1d d43d
00000050: 0547 6b3d 34be e13b 7f0d 853b a4b0 c93d
00000060: 870f e8bb 3651 5a3d 8d5e 47bb 6bbc c73b
00000070: c92e 4e3c 7572 113e f7f0 02bd a394 0f3e
00000080: 5ca5 9abc f8ac a1bc 7f7c f2bc aa2e 003c
00000090: 23c1 91bc b8e6 dc3d 44fc 8d3d cf54 2fbd
000000a0: 82cc 15bd 4e97 c63c 7774 4c3c d7df 4e3d
000000b0: 1e0b 8c3c 3ca1 f3bd 3851 853d 0c44 4fbd
000000c0: 2827 053e 9a51 fb3d 5d79 033e ceeb 483b
000000d0: a158 c63d 95b7 dabc b1a1 d8bd 0fb8 c23c
000000e0: a596 263e d740 103c 403a 47bd b586 5f3c
000000f0: 95c1 a83d 769d 253e 0072 2b3e 03cd 9a3c
0.07438844 0.017630804 0.013994902 0.006865751 0.012329244 -0.0082683135 0.0034610876 -0.05037635
0.19988032 0.1227093 -0.013405664 -0.084597945 0.18912454 0.056832418 -0.06236153 -0.08149863
0.14013071 -0.124623165 -0.0060987757 0.103572465 0.057440776 0.006889129 0.0040604468 0.09848145
-0.007081929 0.053300105 -0.0030421347 0.006095459 0.012584397 0.14203818 -0.031968083 0.14021544
-0.018877678 -0.019735798 -0.02960038 0.007823626 -0.01779229 0.107861936 0.069328815 -0.04280549
-0.036571987 0.02424207 0.012478939 0.05050644 0.017095145 -0.118959874 0.06509632 -0.050602004
0.13003218 0.12271424 0.12839265 0.0030658129 0.09684873 -0.026698867 -0.10577715 0.023769407
0.16268404 0.0088045215 -0.048639536 0.0136429565 0.08240048 0.16173348 0.16742706 0.018896585

net.4.weight f4 [5, 64]
00000000: 5e41 dfbd 16e5 79be cc20 df3e 3a6a 8bbe
00000010: 63b8 5f3e e441 363e e418 98bd 44a5 0cbd
00000020: afa6 d53d c52e 343e f89d 373e e133 fb3b
00000030: 1cc6 133d 5647 813e 5baf 7abe e734 19be
00000040: 315e 133e 7405 3cbe 77a2 1f3e 35b4 503e
00000050: 7004 3c3e fd11 d5bd 2fad 483e 8f37 12be
00000060: 926d fd3d 5604 cfbc 1c0e 093e 7339 8abe
00000070: 264c 1a3e 3e56 4c3e b430 c13d 1000 263d
00000080: 3ea0 e8bd ffc0 343c 119c 6dbe e63c 1cbe
00000090: 3f13 793d bebe 81be edbf 563e 94b2 863d
000000a0: d9b8 363e 736d 32be 3292 873d cd07 243c
000000b0: 9998 83bd b1f6 db3d a9b0 d4bd a369 85bd
000000c0: 5f52 13be c3bd 223e 852b 33be 9f9e 58be
000000d0: 4b5a 263d d474 2f3e 986a c9bd 3cac 3a3e
000000e0: 8772 ec3c 90c6 7cbe 1deb 83be 0020 56be
000000f0: f6c9 7d3c a3d9 1abe ff38 833d 86b6 773e
00000100: e507 713e eba7 0bbe d2c1 87be 9993 5b3e
00000110: 49f5 7bbe ba0b 79be 3223 af3d f801 983c
00000120: 300c 473e 4d3c 4e3e 75b8 81be 3d31 24be
00000130: 2b6c 2f3e 3bf9 31be 2660 83be bfb4 f13d
00000140: 40c2 063e 7a29 33be 44da 16bd 96c1 bd3c
00000150: 5153 40be 62c9 1dbe 0c6c 86be 51ae e1bd
00000160: 6bad 83be bafb a83d 0d6f cabe de6c 853c
00000170: 2ce9 72be 3cc0 80bb 528b 28be 58d1 5a3e
00000180: 514b 033e 171e 74bd 748d 01be 9ba0 303e
00000190: 9985 44be 244a 3c3e aa5e 29be 0dbf 62be
000001a0: ba53 d1be 5498 093e fc73 92be af98 103e
000001b0: d874 553e 0fb8 15be 2056 3a3e b6e4 4ebe
000001c0: 6599 f13d 2033 49be 9ea0 843e 7563 a93c
000001d0: 24d5 35be 23f5 adbd 4d7d 30be 135b 533b
000001e0: 3855 a33d 60e2 893d 2d8d 34bd 3194 fcbd
000001f0: 3e94 d53d ceae 0c3e 0aee 013e 9b5c 79be
00000200: 1557 4dbe 7dd7 3abe 3b04 bcbd a66b 99be
00000210: 398d bfbd 0594 ce3d f6e2 523e 489b 933c
00000220: bede 51be 8363 57bd 938c 763c 2fa4 c23d
00000230: 539e 11be a8a6 e6bd 46ae 543e fc2d 9e3d
00000240: 2282 7f3d 8990 563d 2331 123d 16c7 76be
00000250: b5b4 b03d ef77 183e ea09 4e3c 0b69 4ebe
00000260: 8162 fa3c 3ecd 40be 6423 25bd fd36 5cbd
00000270: d7d5 653e 30d8 29be bed4 3a3e 84d2 90be
00000280: 5e92 1e3e e4e7 333d 0cb0 08be b7a6 423e
00000290: ce00 523c 5c0b 013e 2e33 00be 76ae 5b3e
000002a0: d076 463d 02ed 023e 3a34 463e 5e5a a8bd
000002b0: 30f1 3c3e 4848 8b3e 3a3a 5bbe 3f6b 863e
000002c0: 21d9 2a3e d922 7bbe 4555 313e 47e6 57be
000002d0: ef5f 93bc 40ef 0abe d4d8 5d3e 3b0a 1cbe
000002e0: b51d 78be a9e1 6a3d 64f2 703e d6be 95bd
000002f0: b035 113d 83a3 903d d551 23be cd19 31be
00000300: 5b72 51bd 856c e9bd 0186 babd 6bac 933c
00000310: 577d 473e 48aa 05be c121 85be c82b ccbc
00000320: b15a 67be d066 03be 38d3 e3bd 87ab 3c3e
00000330: 2c02 de3d b634 cebb 0c4e d93c 20b5 38be
00000340: 4655 a3bd 31e1 193e 8e96 43be 3642 8ebd
00000350: ec3d f23c 4a92 013e 68f0 c9bd 170c 2f3e
00000360: 5f15 05be 20c7 a23d 89ad 13be 0a50 093e
00000370: 6862 083d cc35 2dbe f0f3 07be 867f a1bc
00000380: 486c d4bd f2d7 153e e191 233e 886e 6bbe
00000390: 5222 5c3e 1938 1c3d b06d 82bd 3ced 8bbd
000003a0: 713f 523e a8b8 b93d a1a2 f83d 6f2e 5d3d
000003b0: b0e8 c2bd 22e3 ecbd ecde 53be 7e22 e9bd
000003c0: eb41 81be 25ad 0ebe e42c 03bd 3ecd 36be
000003d0: 4e91 5dbe fdff 493e 2e8f 003c ca05 b0bd
000003e0: 6bbc c9bd 6aa6 44be e161 4f3c c64c 3e3e
000003f0: cf1a 52be 7913 4dbe 15fe 9abd 1d9d f3bd
-0.1090114 -0.24403796 0.4357971 -0.27229482 0.21847682 0.17798573 -0.074266225 -0.034337297
0.10432183 0.17595966 0.17931354 0.0076660966 0.036077604 0.25249738 -0.24480955 -0.14961587
0.143914 -0.18361455 0.15589319 0.20381244 0.18361068 -0.104038216 0.19597314 -0.14279006
0.123744145 -0.025270622 0.13384289 -0.26996955 0.15068111 0.19954774 0.094331175 0.040527403
-0.11358689 0.011032342 -0.23204066 -0.15257606 0.06080937 -0.25340837 0.20971651 0.0657703
0.17843951 -0.17424564 0.066196814 0.0100116255 -0.0642559 0.10740412 -0.10385258 -0.06514289
-0.14386891 0.15892701 -0.1749707 -0.21154259 0.040613454 0.1713441 -0.09834784 0.18229765
0.028863205 -0.2468512 -0.25765315 -0.20910645 0.015490046 -0.15122084 0.064073555 0.24190721
0.23538168 -0.13638274 -0.2651506 0.21443023 -0.24605288 -0.2432088 0.08551635 0.018555626
0.19438243 0.2014019 -0.25336042 -0.16034408 0.17131107 -0.1738023 -0.25659293 0.11802053
0.13160038 -0.17496291 -0.036829248 0.023163598 -0.18781783 -0.15408853 -0.26254308 -0.11019576
-0.25718245 0.08251138 -0.3953785 0.016287263 -0.2372176 -0.003929166 -0.16459396 0.21368921
0.128217 -0.05959901 -0.12651616 0.17248766 -0.19191588 0.18387657 -0.16540018 -0.22143193
-0.4088419 0.13437015 -0.28604114 0.14120744 0.20845354 -0.14620994 0.18196917 -0.20204434
0.11796836 -0.19648409 0.2590379 0.020677308 -0.17757088 -0.08494022 -0.17235298 0.003225033
0.079752386 0.06732631 -0.04407995 -0.12332953 0.104286656 0.13738558 0.12688461 -0.24351732
-0.2005275 -0.18246265 -0.091804944 -0.29964942 -0.09353108 0.10086826 0.20594391 0.01801838
-0.20495126 -0.052585136 0.015048164 0.09503972 -0.14220552 -0.11262256 0.20769605 0.077236146
0.062379964 0.052383933 0.03569139 -0.24099383 0.08628217 0.14889501 0.012575606 -0.20157258
0.030564548 -0.18828294 -0.040316954 -0.05376338 0.22444855 -0.16586375 0.18245217 -0.2828561
0.15485522 0.04392232 -0.13348407 0.19008909 0.012817575 0.1260199 -0.12519524 0.2145327
0.048453152 0.12785724 0.1935586 -0.08220361 0.1845138 0.27203584 -0.2140893 0.26253697
0.1668439 -0.24525012 0.17317684 -0.21083938 -0.01799008 -0.13567829 0.21664745 -0.15238278
-0.24230082 0.057344113 0.23529965 -0.0731179 0.03545159 0.070624374 -0.15949185 -0.17294998
-0.05113445 -0.113976516 -0.091075905 0.018026551 0.19481407 -0.13053238 -0.26002315 -0.02492322
-0.2259319 -0.12832189 -0.11124271 0.18424807 0.10840258 -0.0062929047 0.026526473 -0.18037844
-0.07975249 0.1502731 -0.19100401 -0.069462225 0.029570542 0.12653461 -0.09860307 0.17094456
-0.12996434 0.07948136 -0.14421667 0.13409439 0.033296973 -0.16915053 -0.13276649 -0.019714128
-0.103722155 0.14633158 0.15973617 -0.22991383 0.21497467 0.038139436 -0.063685775 -0.06832358
0.20532013 0.090684235 0.12140394 0.05399936 -0.09517038 -0.1156676 -0.20690507 -0.11383532
-0.25245604 -0.13933237 -0.032025233 -0.17851731 -0.2163746 0.19726558 0.007846637 -0.08594854
-0.09850391 -0.19204107 0.0126576135 0.18583974 -0.20518039 -0.2002696 -0.075679936 -0.11895201

net.4.bias f4 [5]
00000000: 0bd7 0fbd b2f5 8c3d f41c 33be 371b 9fbd
00000010: b870 6dbd
-0.03511719 0.068828 -0.17491513 -0.07768863 -0.057968825
